emotion_app/outputs/temp_03a1d60e-ba82-48e2-b664-dc13c7a5ad16.npy (npy, 4224 bytes, 1 tensors)

array f4 [1024]
000000 a3 13 85 bd 07 e9 b7 be f2 8c a0 be 92 30 d6 3e
       -0.06497886 -0.35919973 -0.31357533 0.4183393
000010 6f 7b 5f 3e 6a 02 e8 bd d3 a3 9f 3a b8 85 9e bd
       0.2182443 -0.113285854 0.0012179561 -0.077403486
000020 0e 79 d4 bd f2 fc 2c 3e a6 75 7a 3c 2a e4 1c 3f
       -0.10374652 0.16893366 0.015286839 0.6128565
000030 7a c5 0c bf 43 c8 0b be ea 87 f3 3d c2 c7 95 3d
       -0.54988825 -0.13650613 0.11891158 0.073134914
000040 36 14 f4 3d 2d 2e 9e 3e b5 09 03 3e ca 92 a8 3e
       0.119179174 0.30894604 0.12796672 0.3292449
000050 b0 b7 1a bf c3 b6 75 3e ad 8a d5 be 18 b4 c5 bd
       -0.60436535 0.239955 -0.41707364 -0.09653491
000060 56 56 df 3e a4 ba ea 3e 9e c0 0f bd ea 68 64 be
       0.43620557 0.4584552 -0.035095803 -0.22305647
000070 2a 72 1b 3f 61 8d ca be c1 ca 8c be c4 8f b5 3d
       0.60721076 -0.3956099 -0.2749844 0.08865312
000080 3c 5b 06 3f 97 bf cf bd 33 d2 af be 38 35 69 3e
       0.5248296 -0.10143965 -0.34340057 0.22774208
000090 6c ec 8c 3f 4b 55 9d 3e 18 30 df 3c 22 f6 88 be
       1.100965 0.30729136 0.027244613 -0.26750284
0000a0 c6 3e 8d bd 93 3c 0a 3e aa 2e 87 3e 1b f5 07 be
       -0.06896739 0.1349967 0.2640279 -0.13277094
0000b0 6a 7c 84 3e 9e 87 f0 be 9d 10 ef be b2 8c 1a bd
       0.2587617 -0.46978468 -0.46692362 -0.037731834
0000c0 ca 81 df ba fe 8b 50 3c b6 87 30 bf 7e 22 ac bd
       -0.001705223 0.012728689 -0.6895708 -0.08405016
0000d0 bb ac 6e 3f d3 10 75 bf 7b 3d ad be 7c e0 2b be
       0.93232316 -0.95728797 -0.33835968 -0.16784853
0000e0 96 fd 96 be 06 0c e0 3d e0 e7 1d 3f c9 de 37 3e
       -0.29490346 0.10939793 0.6168194 0.1795608
0000f0 17 7d fd 3e 85 a6 53 3d 1c 12 8f be f7 8e 09 bf
       0.49509498 0.051672477 -0.27943504 -0.5373377
000100 03 ff cb bd c2 e2 86 bd 5b f2 38 be 03 58 0f bf
       -0.09960749 -0.06586219 -0.18061201 -0.5599367
000110 06 2a 67 3d 38 43 46 3e 06 4b c6 be a1 a0 4f bc
       0.05643656 0.1936158 -0.38729113 -0.012672574
000120 75 1c 3f 3e e3 53 46 be 33 49 05 3f 8e d1 a4 3e
       0.18663199 -0.19367938 0.5206482 0.32191128
000130 59 69 29 3f 26 00 01 3f 3e 65 af 3e 94 22 be bb
       0.6617637 0.5039085 0.3425693 -0.005802462
000140 06 28 02 bd 43 4b 2d 3f 88 48 90 be 83 4b 7e 3f
       -0.03177645 0.67692965 -0.28180337 0.9933397
000150 82 b3 1b 3f 4a fb 12 be ee 19 35 3e 73 fc 44 be
       0.6082078 -0.14353672 0.17685673 -0.19236927
000160 be 19 11 bf dd de d2 3c 95 65 95 3e 40 31 6f be
       -0.56679904 0.025741035 0.29179063 -0.23358631
000170 ea 1b aa 3c e4 7d 8e 3e a2 31 6d be ba 5a 7c bc
       0.020765264 0.27830422 -0.23163465 -0.01540249
000180 5b c1 fa bd 95 8b 66 be ee 8c c5 3c f3 12 28 bf
       -0.12243911 -0.22514184 0.024115052 -0.65653914
000190 6b 05 c9 3d a7 c2 28 be e2 d1 7d be 29 ea bc bd
       0.098154865 -0.16480504 -0.24787095 -0.0922435
0001a0 d9 28 ee 3e 64 68 0d 3f 87 7e 28 be ac e9 bd 3d
       0.4651554 0.5523741 -0.16454516 0.09273085
0001b0 4f 2f 34 bf a0 1b 0c 3f 51 b6 75 3e 86 bb 68 3f
       -0.7038469 0.5472965 0.2399533 0.9091114
0001c0 24 a4 2b 3f 11 d1 e7 3d c6 ee e4 3e c8 85 d0 bd
       0.67047334 0.11319173 0.4471342 -0.10181767
0001d0 3c bf 41 3e ae 30 f9 3d f6 fd b3 3e 89 7f a0 3e
       0.18920606 0.12167488 0.35154694 0.31347302
0001e0 53 6e de be 76 5f 00 bf 89 35 57 bf ae 50 82 3d
       -0.43443546 -0.5014566 -0.84066063 0.06363045
0001f0 1a 6f 5b 3e 6a 84 d1 3e 8a c6 fc 3e c3 91 87 bc
       0.214291 0.40921336 0.49370223 -0.016548997
000200 89 b1 6d be 68 3e 7f 3e 86 03 1c 3e 11 37 8d 3e
       -0.23212256 0.2492615 0.15235719 0.27581075
000210 d5 de 9d 3d 24 be 9f bd f2 1e 15 3f 79 b5 d4 bd
       0.077085175 -0.07799938 0.58250344 -0.10386176
000220 18 c5 9b be cb f9 b9 3d 88 c2 f3 bd 7e bc 3c 3e
       -0.30423808 0.09080847 -0.11902338 0.18431279
000230 21 c7 e9 3c a8 02 70 be ec 92 b8 3e a6 92 7d be
       0.028537335 -0.23438513 0.36049592 -0.24762973
000240 0f 00 5f be c3 6d f5 3e 3a e3 ec be 95 99 a5 3e
       -0.21777366 0.47935304 -0.4626711 0.32343736
000250 d3 45 af bf a6 a9 e5 bc c0 0a 31 3f 4e 41 28 3f
       -1.3693184 -0.028034996 0.6915703 0.6572465
000260 e2 93 43 bf 0e 4f 51 be 81 9b 16 bf 74 47 cd 3e
       -0.76397526 -0.20440313 -0.5883103 0.40093577
000270 3a 53 82 bd ff a1 d0 3e f3 30 78 be 23 31 18 3f
       -0.063635305 0.40748593 -0.24237423 0.59449977
000280 e2 0a ac bd de c4 9c bc 82 ec 85 bd e4 9a b7 3e
       -0.08400513 -0.019136842 -0.06539251 0.3586036
000290 20 d0 7b be b5 17 26 be f2 be 43 bd 03 ed cc bc
       -0.24591112 -0.16219981 -0.04778952 -0.02501536
0002a0 5c b9 85 3f 1c 89 70 3e e6 aa e8 bd 37 a9 ee 3c
       1.0447192 0.23489803 -0.11360721 0.029133422
0002b0 22 1a 90 3e cf d5 62 3e c4 95 1f be 3f de 9e bd
       0.28144938 0.22151874 -0.15584475 -0.07757234
0002c0 51 5a 2a 3f de a6 a9 3d 72 86 24 be fa d0 bb bd
       0.6654406 0.082837805 -0.16066912 -0.091707185
0002d0 b6 62 c9 be c5 3b 5c 3d 92 fc e8 bd c8 f6 18 3e
       -0.39333123 0.05376794 -0.11376299 0.1493789
0002e0 3c fc c4 be 81 39 44 be 27 a4 d2 be 0f 18 27 bf
       -0.3847369 -0.19162561 -0.41140863 -0.65271086
0002f0 9b 3c 1a be 33 5b b2 3e 81 34 1c 3e 8b c4 44 bd
       -0.15062182 0.34835204 0.15254404 -0.048039
000300 88 51 02 3f b4 de 49 be 72 ce b1 be cc 15 99 3e
       0.50905657 -0.19713861 -0.34727818 0.29899442
000310 2c 54 e2 3d e9 49 24 be a6 d2 00 bf c5 cc 0d be
       0.11051211 -0.1604382 -0.50321424 -0.13847645
000320 f9 74 af be 63 09 59 3e 9e 2a 05 3f 12 aa 7f 3e
       -0.3426893 0.21194987 0.52018154 0.2496722
000330 6b 19 93 be d5 f2 a4 3e 43 6a e2 3e 20 23 35 3f
       -0.2873033 0.32216516 0.44221696 0.7075672
000340 44 91 b1 be a6 9f 40 be bd 13 39 3e 71 3c 0f bf
       -0.3468114 -0.18810901 0.18073936 -0.559516
000350 c0 1c 1a 3e 2f b4 07 3f 1f c4 24 be de f9 10 be
       0.1505003 0.53009313 -0.1609044 -0.14157817
000360 58 0f e3 3d c2 a2 5d 3d 7a 52 4c bf bb ad ab be
       0.11086911 0.054110296 -0.7981335 -0.33530983
000370 d1 0c 2a bf a5 98 03 bf 2d c7 07 bf 1b 39 9e 3c
       -0.66425806 -0.5140479 -0.53038293 0.01931434
000380 40 54 a4 bd 86 7f 4c be 92 5c 50 3d 1d af ed be
       -0.08023882 -0.19970521 0.050869532 -0.46422663
000390 20 a2 18 bc 6d 50 d0 be 1b e0 b2 bf e2 8a a4 3e
       -0.009315997 -0.4068636 -1.3974642 0.3213721
0003a0 6f 2a 05 bf a4 01 69 be 4f 3b c1 3e 76 ec b9 3e
       -0.52017874 -0.22754532 0.3774056 0.36313218
0003b0 0e ed 84 3e 6c 20 65 be 07 52 c6 be 90 02 1b be
       0.25962108 -0.22375649 -0.38734457 -0.15137696
0003c0 e7 b5 c8 be df 97 83 3e fa c4 e0 3e bd c6 29 be
       -0.3920128 0.25701806 0.4390028 -0.16579719
0003d0 33 82 16 bf ce d6 01 be d0 c5 56 bf f2 46 16 3f
       -0.5879242 -0.12679598 -0.8389559 0.58702004
0003e0 3d 0f 06 bf 6e 9f 5c be 18 92 91 3d be 57 b8 be
       -0.52367 -0.21545193 0.07107943 -0.36004442
0003f0 cb 60 a7 3d 8c 3a 94 3c f6 e5 10 3f cb 18 46 be
       0.08172759 0.018094324 0.5660089 -0.19345395
